…
I0805 02:17:56.473620   567 net.cpp:296] The NetState phase (0) differed from the phase (1) specified by a rule in layer mnist
I0805 02:17:56.473639   567 net.cpp:296] The NetState phase (0) differed from the phase (1) specified by a rule in layer accuracy
I0805 02:17:56.473737   567 net.cpp:53] Initializing net from parameters: 
name: "hbk_mnist"
state {
  phase: TRAIN
  level: 0
  stage: ""
}
layer {
  name: "mnist"
  type: "Data"
  top: "data"
  top: "label"
  include {
    phase: TRAIN
  }
  transform_param {
    scale: 0.00390625
  }
  data_param {
    source: "/home/yanan/caffe/examples/mnist/mnist_train_lmdb"
    batch_size: 64
    backend: LMDB
  }
}
layer {
  name: "ip1"
  type: "InnerProduct"
  bottom: "data"
  top: "ip1"
  param {
    lr_mult: 1
  }
  param {
    lr_mult: 2
  }
  inner_product_param {
    num_output: 500
    weight_filler {
      type: "xavier"
    }
    bias_filler {
      type: "constant"
    }
  }
}
layer {
  name: "relu1"
  type: "ReLU"
  bottom: "ip1"
  top: "re1"
}
layer {
  name: "ip2"
  type: "InnerProduct"
  bottom: "re1"
  top: "ip2"
  param {
    lr_mult: 1
  }
  param {
    lr_mult: 2
  }
  inner_product_param {
    num_output: 10
    weight_filler {
      type: "xavier"
    }
    bias_filler {
      type: "constant"
    }
  }
}
layer {
  name: "loss"
  type: "SoftmaxWithLoss"
  bottom: "ip2"
  bottom: "label"
  top: "loss"
}
I0805 02:17:56.473817   567 layer_factory.hpp:77] Creating layer mnist
I0805 02:17:56.473995   567 db_lmdb.cpp:35] Opened lmdb /home/yanan/caffe/examples/mnist/mnist_train_lmdb
I0805 02:17:56.474048   567 net.cpp:86] Creating Layer mnist
I0805 02:17:56.474066   567 net.cpp:382] mnist -> data
I0805 02:17:56.474100   567 net.cpp:382] mnist -> label
I0805 02:17:56.475737   567 data_layer.cpp:45] output data size: 64,1,28,28
I0805 02:17:56.476402   567 net.cpp:124] Setting up mnist
I0805 02:17:56.476486   567 net.cpp:131] Top shape: 64 1 28 28 (50176)
I0805 02:17:56.476496   567 net.cpp:131] Top shape: 64 (64)
I0805 02:17:56.476502   567 net.cpp:139] Memory required for data: 200960
I0805 02:17:56.476531   567 layer_factory.hpp:77] Creating layer ip1
I0805 02:17:56.476549   567 net.cpp:86] Creating Layer ip1
I0805 02:17:56.476559   567 net.cpp:408] ip1 <- data
I0805 02:17:56.476578   567 net.cpp:382] ip1 -> ip1
I0805 02:17:56.480618   567 net.cpp:124] Setting up ip1
I0805 02:17:56.480634   567 net.cpp:131] Top shape: 64 500 (32000)
I0805 02:17:56.480640   567 net.cpp:139] Memory required for data: 328960
I0805 02:17:56.480684   567 layer_factory.hpp:77] Creating layer relu1
I0805 02:17:56.480720   567 net.cpp:86] Creating Layer relu1
I0805 02:17:56.480727   567 net.cpp:408] relu1 <- ip1
I0805 02:17:56.480736   567 net.cpp:382] relu1 -> re1
I0805 02:17:58.717136   567 net.cpp:124] Setting up relu1
I0805 02:17:58.717190   567 net.cpp:131] Top shape: 64 500 (32000)
I0805 02:17:58.717197   567 net.cpp:139] Memory required for data: 456960
I0805 02:17:58.717231   567 layer_factory.hpp:77] Creating layer ip2
I0805 02:17:58.717253   567 net.cpp:86] Creating Layer ip2
I0805 02:17:58.717262   567 net.cpp:408] ip2 <- re1
I0805 02:17:58.717276   567 net.cpp:382] ip2 -> ip2
I0805 02:17:58.717495   567 net.cpp:124] Setting up ip2
I0805 02:17:58.717527   567 net.cpp:131] Top shape: 64 10 (640)
I0805 02:17:58.717533   567 net.cpp:139] Memory required for data: 459520
I0805 02:17:58.717548   567 layer_factory.hpp:77] Creating layer loss
I0805 02:17:58.717567   567 net.cpp:86] Creating Layer loss
I0805 02:17:58.717574   567 net.cpp:408] loss <- ip2
I0805 02:17:58.717638   567 net.cpp:408] loss <- label
I0805 02:17:58.717686   567 net.cpp:382] loss -> loss
I0805 02:17:58.717727   567 layer_factory.hpp:77] Creating layer loss
…
I0805 02:17:58.719242   567 solver.cpp:190] Creating test net (#0) specified by net file: mnist.prototxt
I0805 02:17:58.719271   567 net.cpp:296] The NetState phase (1) differed from the phase (0) specified by a rule in layer mnist
I0805 02:17:58.719368   567 net.cpp:53] Initializing net from parameters: 
name: "hbk_mnist"
state {
  phase: TEST
}
layer {
  name: "mnist"
  type: "Data"
  top: "data"
  top: "label"
  include {
    phase: TEST
  }
  transform_param {
    scale: 0.00390625
  }
  data_param {
    source: "/home/yanan/caffe/examples/mnist/mnist_test_lmdb"
    batch_size: 100
    backend: LMDB
  }
}
layer {
  name: "ip1"
  type: "InnerProduct"
  bottom: "data"
  top: "ip1"
  param {
    lr_mult: 1
  }
  param {
    lr_mult: 2
  }
  inner_product_param {
    num_output: 500
    weight_filler {
      type: "xavier"
    }
    bias_filler {
      type: "constant"
    }
  }
}
layer {
  name: "relu1"
  type: "ReLU"
  bottom: "ip1"
  top: "re1"
}
layer {
  name: "ip2"
  type: "InnerProduct"
  bottom: "re1"
  top: "ip2"
  param {
    lr_mult: 1
  }
  param {
    lr_mult: 2
  }
  inner_product_param {
    num_output: 10
    weight_filler {
      type: "xavier"
    }
    bias_filler {
      type: "constant"
    }
  }
}
layer {
  name: "accuracy"
  type: "Accuracy"
  bottom: "ip2"
  bottom: "label"
  top: "accuracy"
  include {
    phase: TEST
  }
}
layer {
  name: "loss"
  type: "SoftmaxWithLoss"
  bottom: "ip2"
  bottom: "label"
  top: "loss"
}
I0805 02:17:58.719439   567 layer_factory.hpp:77] Creating layer mnist
I0805 02:17:58.719548   567 db_lmdb.cpp:35] Opened lmdb /home/yanan/caffe/examples/mnist/mnist_test_lmdb
I0805 02:17:58.719573   567 net.cpp:86] Creating Layer mnist
I0805 02:17:58.719583   567 net.cpp:382] mnist -> data
I0805 02:17:58.719596   567 net.cpp:382] mnist -> label
I0805 02:17:58.719710   567 data_layer.cpp:45] output data size: 100,1,28,28
I0805 02:17:58.721220   567 net.cpp:124] Setting up mnist
I0805 02:17:58.721247   567 net.cpp:131] Top shape: 100 1 28 28 (78400)
I0805 02:17:58.721261   567 net.cpp:131] Top shape: 100 (100)
I0805 02:17:58.721271   567 net.cpp:139] Memory required for data: 314000
I0805 02:17:58.721282   567 layer_factory.hpp:77] Creating layer label_mnist_1_split
I0805 02:17:58.721302   567 net.cpp:86] Creating Layer label_mnist_1_split
I0805 02:17:58.721313   567 net.cpp:408] label_mnist_1_split <- label
I0805 02:17:58.721477   567 net.cpp:382] label_mnist_1_split -> label_mnist_1_split_0
I0805 02:17:58.721498   567 net.cpp:382] label_mnist_1_split -> label_mnist_1_split_1
I0805 02:17:58.722537   567 net.cpp:124] Setting up label_mnist_1_split
I0805 02:17:58.722582   567 net.cpp:131] Top shape: 100 (100)
I0805 02:17:58.722594   567 net.cpp:131] Top shape: 100 (100)
I0805 02:17:58.722604   567 net.cpp:139] Memory required for data: 314800
I0805 02:17:58.722617   567 layer_factory.hpp:77] Creating layer ip1
I0805 02:17:58.722647   567 net.cpp:86] Creating Layer ip1
I0805 02:17:58.722659   567 net.cpp:408] ip1 <- data
I0805 02:17:58.722678   567 net.cpp:382] ip1 -> ip1
I0805 02:17:58.729642   567 net.cpp:124] Setting up ip1
I0805 02:17:58.729671   567 net.cpp:131] Top shape: 100 500 (50000)
I0805 02:17:58.729709   567 net.cpp:139] Memory required for data: 514800
I0805 02:17:58.729735   567 layer_factory.hpp:77] Creating layer relu1
I0805 02:17:58.729751   567 net.cpp:86] Creating Layer relu1
I0805 02:17:58.729763   567 net.cpp:408] relu1 <- ip1
I0805 02:17:58.729777   567 net.cpp:382] relu1 -> re1
I0805 02:17:58.730770   567 net.cpp:124] Setting up relu1
I0805 02:17:58.730794   567 net.cpp:131] Top shape: 100 500 (50000)
I0805 02:17:58.730805   567 net.cpp:139] Memory required for data: 714800
I0805 02:17:58.730814   567 layer_factory.hpp:77] Creating layer ip2
I0805 02:17:58.730834   567 net.cpp:86] Creating Layer ip2
I0805 02:17:58.730844   567 net.cpp:408] ip2 <- re1
I0805 02:17:58.730859   567 net.cpp:382] ip2 -> ip2
I0805 02:17:58.731096   567 net.cpp:124] Setting up ip2
I0805 02:17:58.731109   567 net.cpp:131] Top shape: 100 10 (1000)
I0805 02:17:58.731119   567 net.cpp:139] Memory required for data: 718800
I0805 02:17:58.731137   567 layer_factory.hpp:77] Creating layer ip2_ip2_0_split
I0805 02:17:58.731151   567 net.cpp:86] Creating Layer ip2_ip2_0_split
I0805 02:17:58.731161   567 net.cpp:408] ip2_ip2_0_split <- ip2
I0805 02:17:58.731174   567 net.cpp:382] ip2_ip2_0_split -> ip2_ip2_0_split_0
I0805 02:17:58.731190   567 net.cpp:382] ip2_ip2_0_split -> ip2_ip2_0_split_1
I0805 02:17:58.731251   567 net.cpp:124] Setting up ip2_ip2_0_split
I0805 02:17:58.731263   567 net.cpp:131] Top shape: 100 10 (1000)
I0805 02:17:58.731274   567 net.cpp:131] Top shape: 100 10 (1000)
I0805 02:17:58.731284   567 net.cpp:139] Memory required for data: 726800
I0805 02:17:58.731294   567 layer_factory.hpp:77] Creating layer accuracy
I0805 02:17:58.731317   567 net.cpp:86] Creating Layer accuracy
I0805 02:17:58.731339   567 net.cpp:408] accuracy <- ip2_ip2_0_split_0
I0805 02:17:58.731351   567 net.cpp:408] accuracy <- label_mnist_1_split_0
I0805 02:17:58.731365   567 net.cpp:382] accuracy -> accuracy
…
